Model: "sequential_3"
┏━━━━━━━━━━━━━━━━━━━━━━━━━━━━━━━━━┳━━━━━━━━━━━━━━━━━━━━━━━━┳━━━━━━━━━━━━━━━┓
┃ Layer (type)                    ┃ Output Shape           ┃       Param # ┃
┡━━━━━━━━━━━━━━━━━━━━━━━━━━━━━━━━━╇━━━━━━━━━━━━━━━━━━━━━━━━╇━━━━━━━━━━━━━━━┩
│ conv2d_12 (Conv2D)              │ (None, 256, 256, 32)   │           896 │
├─────────────────────────────────┼────────────────────────┼───────────────┤
│ conv2d_13 (Conv2D)              │ (None, 256, 256, 32)   │         9,248 │
├─────────────────────────────────┼────────────────────────┼───────────────┤
│ max_pooling2d_6 (MaxPooling2D)  │ (None, 128, 128, 32)   │             0 │
├─────────────────────────────────┼────────────────────────┼───────────────┤
│ dropout_9 (Dropout)             │ (None, 128, 128, 32)   │             0 │
├─────────────────────────────────┼────────────────────────┼───────────────┤
│ conv2d_14 (Conv2D)              │ (None, 128, 128, 64)   │        18,496 │
├─────────────────────────────────┼────────────────────────┼───────────────┤
│ conv2d_15 (Conv2D)              │ (None, 128, 128, 64)   │        36,928 │
├─────────────────────────────────┼────────────────────────┼───────────────┤
│ max_pooling2d_7 (MaxPooling2D)  │ (None, 64, 64, 64)     │             0 │
├─────────────────────────────────┼────────────────────────┼───────────────┤
│ dropout_10 (Dropout)            │ (None, 64, 64, 64)     │             0 │
├─────────────────────────────────┼────────────────────────┼───────────────┤
│ flatten_3 (Flatten)             │ (None, 262144)         │             0 │
├─────────────────────────────────┼────────────────────────┼───────────────┤
│ dense_6 (Dense)                 │ (None, 128)            │    33,554,560 │
├─────────────────────────────────┼────────────────────────┼───────────────┤
│ dropout_11 (Dropout)            │ (None, 128)            │             0 │
├─────────────────────────────────┼────────────────────────┼───────────────┤
│ dense_7 (Dense)                 │ (None, 1)              │           129 │
└─────────────────────────────────┴────────────────────────┴───────────────┘
 Total params: 100,860,773 (384.75 MB)
 Trainable params: 33,620,257 (128.25 MB)
 Non-trainable params: 0 (0.00 B)
 Optimizer params: 67,240,516 (256.50 MB)

